pytorch_code/result/model/model.ckpt (torch, 408448 bytes, 8 tensors)

block3.linear0.bias f4 [200]
000000 8f 19 7e bd a5 5b 03 3e 37 f4 81 be 32 27 20 be
       -0.062036093 0.12827928 -0.25381634 -0.15639952
000010 45 90 c4 bd 98 26 8a bd be 5e d9 bd 2a 15 94 bd
       -0.0959783 -0.067456424 -0.10613774 -0.07230599
000020 49 32 76 3d 96 c0 7a be ed 38 91 3e e9 4a af 3d
       0.06010655 -0.24487528 0.28363743 0.0855921
000030 a2 b0 bc bd a5 26 0b 3e 6b 17 22 be 46 e8 b2 3e
       -0.092133775 0.1358896 -0.15829246 0.34942836
000040 f3 84 73 be 76 f8 e5 be 34 f8 8b bd e6 41 ca be
       -0.23781185 -0.44916123 -0.0683445 -0.39503402
000050 38 0e 7c be 1d 30 51 3e 27 cc e7 ba 9f a0 47 be
       -0.24614799 0.2042851 -0.0017684744 -0.19494866
000060 3c e7 99 3e f6 02 a4 bd 62 d9 20 3d 96 aa 97 3d
       0.3005923 -0.08008377 0.039269812 0.074055836
000070 c6 d1 c3 bd 1d b2 dc bc 32 3d 8d bd 6f 07 50 3d
       -0.095614955 -0.0269404 -0.06896438 0.05078834
000080 74 bb bc ba 5e 63 f9 3d 86 b4 bc bd 6d 08 ca 3d
       -0.0014399127 0.12177156 -0.092141196 0.09864888
000090 43 fb 33 be 1c e7 f3 bd 84 0e e5 bd 46 13 1b be
       -0.17576317 -0.11909315 -0.11184409 -0.15144071
0000a0 cc d9 5d 3c 72 6c 26 be 9d 96 14 be b0 81 b5 3e
       0.013540696 -0.16252306 -0.1451058 0.35450506
0000b0 b6 b7 bc bd 98 ef 1f be e1 5c 55 3e db 77 a3 3c
       -0.092147276 -0.15618742 0.20836212 0.019954612
0000c0 bf 92 72 bd 96 89 62 be 52 c5 e7 bd 8e b4 43 be
       -0.05922198 -0.22122797 -0.11316933 -0.19111845
0000d0 41 7b b9 bc d7 ab 04 3e c8 03 60 3d 4e f8 54 3d
       -0.02264178 0.12956177 0.054691106 0.051994614
0000e0 23 ab 4f bd a2 36 75 3e d7 27 ac 3e bc 8a 75 be
       -0.050700318 0.23946622 0.33624145 -0.23978704
0000f0 db 84 32 3e 25 90 7d 3d b6 01 da bd 00 94 95 be
       0.17433493 0.061905045 -0.106448576 -0.29214478
000100 9d ad ea bd 5d bd a9 bc a5 30 9d be 45 3d ca be
       -0.11458895 -0.020720178 -0.30701175 -0.3949987
000110 4a 19 fb bb 7e a1 c4 be d0 cc 76 be 92 af 13 be
       -0.007662927 -0.3840446 -0.24101567 -0.14422444
000120 31 2b 19 3d 21 db 09 3e 98 9e 1f be ef a2 5f 3d
       0.037394706 0.13462497 -0.15587842 0.054598745
000130 8d 6f 5e be 72 73 67 3d 93 c7 00 3e 60 f3 6d be
       -0.21722241 0.05650658 0.12576132 -0.23237371
000140 5d 27 be 3e 80 7f b5 bd a7 9d 03 bb 74 80 82 be
       0.37139407 -0.08862209 -0.0020082982 -0.25488627
000150 ac 08 ca 3e f7 95 90 be 36 e1 7d 3e d0 f2 35 be
       0.3945974 -0.28239414 0.24792942 -0.17768407
000160 22 eb c7 bd a6 4f 99 bc b9 7f af be ac 27 4a 3d
       -0.09761645 -0.018714737 -0.34277132 0.04935424
000170 0d 9a df 3d 56 21 84 bd 99 05 04 bd 5c 94 36 be
       0.10918055 -0.06451671 -0.0322319 -0.17830032
000180 85 79 18 3e b8 96 a2 be ed 05 ef 3d 99 3e 5f bd
       0.14890106 -0.31755614 0.11671052 -0.054503057
000190 e6 8b 55 3e f8 88 af 3e c1 3a 91 bd 7d 49 65 3e
       0.20854148 0.34284186 -0.070912845 0.22391315
0001a0 72 fd 9f 3c 2c 57 8d 3e 3e 27 88 3c 6a 1c ae 3e
       0.019530032 0.2760557 0.016620275 0.34006053
0001b0 da e7 96 be 16 03 aa 3e 5b 07 a0 3d 01 97 f5 3b
       -0.29473764 0.3320548 0.07813903 0.0074948077
0001c0 4c 4c 94 be 81 d6 87 be 94 02 b1 be 61 8f 54 bc
       -0.2896446 -0.2653084 -0.3457228 -0.012973637
0001d0 52 68 c7 3d 83 42 9f be aa ba ce bd 89 9f 92 bd
       0.097366944 -0.31105432 -0.10094197 -0.07159335
0001e0 96 fe c9 be 1a 9f 3c 3e cc f8 a5 3e 3c d0 f2 3e
       -0.39452046 0.18420067 0.3241638 0.47424495
0001f0 1c bf 7d be 1f b4 c2 bd e6 7f c0 be cb 2a ed ba
       -0.24779934 -0.095070116 -0.3759758 -0.0018094418
000200 1e fc fa 3e d6 b4 83 3e 83 80 41 bc f4 b2 9c bd
       0.49020475 0.25723904 -0.011810425 -0.0765132
000210 8f 9e 1e be 35 d5 7e be c4 7b 37 be c5 ad 41 be
       -0.15490173 -0.2488602 -0.17918307 -0.18913944
000220 0d 19 68 3d bc b0 2f 3e d2 5d a0 3d c0 6a 2f be
       0.056664515 0.17157263 0.07830395 -0.17130566
000230 3a e9 9c be 17 74 79 be 82 8b 1d 3d 39 ee 90 3d
       -0.30646688 -0.24360691 0.038463123 0.07076687
000240 58 dc 88 be 5c 48 01 bd 57 ee e1 be a7 8d bb 3e
       -0.2673061 -0.031563148 -0.4412715 0.3663151
000250 57 06 e5 be 1f bd 0f bc 2e 09 ef 3c 7d 96 09 3e
       -0.447314 -0.008773117 0.029179182 0.13436313
000260 57 a0 42 3e a1 aa 31 3e f4 6f 02 be 78 a1 3e 3e
       0.19006477 0.17350246 -0.12738019 0.18616283
000270 04 b8 9c bd 40 e9 2c be 0c 27 67 bd 4d 6c 7e be
       -0.07652286 -0.16885853 -0.056433722 -0.24846001
000280 dc 94 a3 be 97 92 08 3e c4 32 cc 3d 43 f3 c3 3d
       -0.31949508 0.1333717 0.0997062 0.09567883
000290 cb f8 14 be 31 d6 76 3c b3 99 07 bc 1e 1a 7c bd
       -0.14548032 0.015065716 -0.008276391 -0.061548345
0002a0 bb 04 fa bb 3a a6 8c 3a 3c 39 00 3e b7 fd 00 3e
       -0.0076299584 0.0010730692 0.12521833 0.12596785
0002b0 3c 1f 9e bd 25 67 77 3e 10 e1 25 3e d1 34 fc bd
       -0.07720801 0.2416044 0.16199136 -0.123147614
0002c0 4f 08 29 3e b6 e4 07 bd 92 a5 44 be 91 a9 3f bd
       0.16507076 -0.0331771 -0.19203785 -0.04679257
0002d0 f8 e1 29 3e 75 f3 9a 3a 98 1b 6e bc fd 89 fd 3d
       0.16590106 0.0011821823 -0.014532946 0.12379835
0002e0 7a 26 67 3d f5 52 eb 3d fe 1b c3 be 2f 1b 6b 3d
       0.05643318 0.11490432 -0.38107294 0.05739897
0002f0 3a 9b 47 be 41 c1 05 3e 03 0a 62 3e 9b 31 37 be
       -0.19492808 0.13062002 0.22074132 -0.17890017
000300 26 e2 e3 3c 49 3c 9b bd 84 45 fd 3d a4 fe 57 be
       0.027817797 -0.07579858 0.12366775 -0.21093231
000310 3c 85 db bc b9 5d 59 be 55 fa 0b be 8b 18 cd 3c
       -0.02679693 -0.21227159 -0.13669713 0.025036117

block3.linear1.bias f4 [200]
000000 a9 14 b3 3e 1f 7a 88 be a7 8a c8 bc 7f bf c3 bc
       0.349767 -0.2665567 -0.024480177 -0.023895023
000010 31 05 b3 3d 28 34 66 bc d9 3b eb 3d 28 dc 14 bc
       0.087412246 -0.014050521 0.114860244 -0.009085692
000020 0e 55 10 bd d2 80 b7 be 36 2e 6c be d0 99 25 be
       -0.035237364 -0.3584047 -0.23064503 -0.16171956
000030 58 2c d2 be e6 d8 53 be 61 50 e4 3d dc 50 c2 bd
       -0.41049457 -0.20688209 0.111481436 -0.09488079
000040 1c 57 4e bc 1b 40 ea 3d fc db e6 3e 97 43 30 3e
       -0.012594011 0.114380084 0.4508971 0.17213283
000050 68 c3 c4 be 61 e5 b1 3e 4a a2 ba 3b 11 d1 67 bd
       -0.38430333 0.34745315 0.005695616 -0.056595866
000060 39 50 3a 3e 83 51 81 3e ac d0 0a 3a 69 07 8a 3e
       0.18194665 0.252575 0.0005295377 0.26958779
000070 d6 06 73 3e 0c b9 af bd 5b f6 59 3e 69 a8 91 3d
       0.23733076 -0.08580217 0.21285383 0.071122
000080 7d eb 07 3d 86 c8 be bd 59 f7 85 be 2c 94 f8 be
       0.033183564 -0.093155906 -0.26165274 -0.48550546
000090 44 13 8e be 3c 95 43 3e c5 b0 ff bd 52 f7 f9 bd
       -0.27749074 0.19099897 -0.12484888 -0.12205376
0000a0 89 57 4e be ad f1 22 be dc e3 85 3e 00 a6 8a 3d
       -0.2015058 -0.15912504 0.26150405 0.06769943
0000b0 bb 6a 9d 3e fe 8d 59 3d d4 0c 13 bd 94 58 11 be
       0.3074549 0.05311393 -0.035900906 -0.14193946
0000c0 85 64 df bd 93 06 1a be b0 df 6e bd 5a 69 a4 3d
       -0.109078445 -0.1504157 -0.058318794 0.08027907
0000d0 f1 04 ac bd 4e 72 8f be 0a 20 04 bf e0 dd 5e be
       -0.0839938 -0.28016895 -0.5161139 -0.21764326
0000e0 25 2f 1b bd 09 fe c7 be 7e 8a 77 3c 13 28 b2 3d
       -0.037886757 -0.39061 0.015108703 0.0869905
0000f0 9b 50 a3 3d 9a dc 35 3d 6e ce e4 3d 1e 93 ce 3e
       0.07974359 0.044399835 0.11172186 0.40346617
000100 55 4f 84 be f0 c2 af bd ce 0b 3f 3e ec 67 39 3e
       -0.25841776 -0.08582103 0.18656847 0.1810605
000110 ad b8 b9 3d c6 e8 4a 3e 12 7e 0f bd 9d 95 7e be
       0.09068427 0.19815359 -0.03503234 -0.2486176
000120 f2 e5 c6 3d e1 99 95 3d a8 2f d1 3d 1e 8d 24 3e
       0.09711827 0.07304741 0.10214168 0.16069457
000130 58 56 05 3d 70 2b c4 3d f0 db a1 3e e8 74 f9 be
       0.032553047 0.095785975 0.31613111 -0.48722005
000140 07 1f 34 3c f1 3f 68 bc 77 ec b2 3e c3 df 85 3e
       0.010993726 -0.014175401 0.34946033 0.2614728
000150 65 f4 c8 bd 60 3b 9f be 08 ac 83 3a 44 03 c5 3e
       -0.098122396 -0.31099987 0.0010045776 0.38479054
000160 65 38 42 3d 10 4a 1c be 78 be bb be a5 71 bb 3e
       0.047417063 -0.15262628 -0.36668754 0.3661014
000170 14 95 a9 bd 98 1f 85 be f8 32 85 be ac 6f b5 be
       -0.082803875 -0.26000667 -0.2601545 -0.3543676
000180 f3 fb 87 be 58 8c a4 3d 39 f8 f6 be 56 09 c7 bd
       -0.2655941 0.08034581 -0.48236254 -0.097185776
000190 4f c4 c5 3e 97 4a 5a be 06 d2 b7 bd 20 10 d2 3e
       0.38626334 -0.21317516 -0.08975606 0.41027927
0001a0 75 e1 24 bf 23 64 2b 3d 80 72 a8 bd 79 aa 3e 3d
       -0.6440652 0.041843545 -0.08224964 0.046549294
0001b0 48 62 eb 3d f6 62 c0 bd 94 94 c2 3d ac 4d 98 be
       0.11493355 -0.09393875 0.09500995 -0.2974676
0001c0 e0 a3 21 be f1 dc f4 3d 47 2f 71 bc 27 fa 9a be
       -0.1578517 0.11956204 -0.014720744 -0.30268976
0001d0 47 d5 2f 3e 70 3f df 3d 3e 01 b9 3d e7 17 b8 3e
       0.17171203 0.109007716 0.0903344 0.35955736
0001e0 34 f1 90 3d 0a 79 18 be 5d 16 b7 bc 45 35 ed 3c
       0.07077256 -0.14889923 -0.02234953 0.028956065
0001f0 d1 22 6f bd 16 68 93 3b bb 08 23 be 4b ac d0 bd
       -0.058382813 0.004498492 -0.15921299 -0.10189112
000200 a0 c7 d0 3e 78 39 33 3c a6 4a 31 be 29 91 98 3d
       0.40777302 0.010938995 -0.17313632 0.07449562
000210 b2 21 48 3d 9c 34 52 be fb 4f 48 bc d4 85 9d be
       0.04886026 -0.20527881 -0.0122261 -0.30766165
000220 e7 30 ee 3d 70 f6 45 be 96 40 69 3d fb b8 12 bd
       0.11630421 -0.1933229 0.05694636 -0.035820942
000230 8d 56 4c bd cf c0 85 3d 5e 98 a0 bc cc 6d 75 3d
       -0.04988723 0.06530916 -0.019603904 0.059919164
000240 f6 9d 8f be 12 c5 93 3e 85 63 bf be cb 86 95 bd
       -0.28050202 0.2886129 -0.37380615 -0.073011
000250 16 b0 92 3d ed 48 64 3d 04 dd 9f 3d 3d 3e cb bc
       0.07162492 0.05573361 0.07805827 -0.024809951
000260 78 54 9d 3d 37 4f 93 be 5e da 88 be a9 e8 61 3e
       0.07682127 -0.28771374 -0.267291 0.22061409
000270 03 24 8e be a1 09 78 3e 90 46 12 bc 2c 2f 3d 3c
       -0.2776185 0.24222423 -0.008927956 0.011546891
000280 91 58 06 3e eb aa 8c 3e b6 a0 66 be 4e 72 1d 3c
       0.13119723 0.2747415 -0.22522244 0.009609772
000290 53 65 ca bd 8f d1 a4 3e 4e 8a af be c5 71 f1 bd
       -0.09882607 0.3219113 -0.34285206 -0.11789278
0002a0 3c 7a 59 3e ab bc cb bd 96 66 0e be 12 69 ab be
       0.21238035 -0.09948095 -0.13906321 -0.334786
0002b0 71 7f 9c 3c 56 7b fd 3d 42 5b 02 3e 21 40 9a 3d
       0.019103738 0.1237704 0.12730125 0.07531763
0002c0 c2 48 19 be f6 45 09 3e d5 34 55 3e cb c0 55 3e
       -0.14969161 0.13405594 0.20820935 0.20874326
0002d0 8b fb da 3c 89 73 75 3e 03 f2 e5 3c ee c4 fb 3e
       0.026731273 0.23969854 0.028069502 0.49173683
0002e0 d8 d0 71 3d d1 31 a1 bd 31 20 80 b8 b1 11 a8 be
       0.05903706 -0.0787083 -6.109512e-05 -0.32825997
0002f0 c4 a1 fa 3c 24 56 05 3d 7a 7d e8 3b c9 ce 96 3e
       0.030594714 0.032552853 0.007095036 0.2945464
000300 39 2b 76 bd fa 08 9c bd dd 38 d9 be 0c bb d4 bd
       -0.060099814 -0.076189 -0.42426196 -0.10387239
000310 3e 14 6c be 87 c5 86 3e ed dc f1 3d 96 20 81 3e
       -0.23054597 0.26322576 0.118097164 0.25220174

block3.linear2.bias f4 [200]
000000 98 79 49 bd 3f f7 d1 bd e3 a4 b4 3d 41 be f5 bc
       -0.049188226 -0.102522366 0.08820512 -0.029997947
000010 28 1c a2 3e 3c 91 f3 be c6 e6 11 be da 53 8e 3d
       0.31662107 -0.47571743 -0.1424819 0.06949587
000020 22 46 98 3d 25 5c 19 3e ec a0 82 bd 3e 2a 10 be
       0.07435252 0.14976557 -0.0637835 -0.14078614
000030 44 01 a9 bd ea 8a 37 3b 05 ce d0 bc 88 bf 54 be
       -0.082521945 0.0028006383 -0.025488863 -0.20776188
000040 96 2f 04 3f 13 1e c6 be 31 db 73 3e 82 ba 6c bc
       0.5163511 -0.3869482 0.23814084 -0.014448764
000050 55 a7 ca 3d ac 2c dd 3e 35 44 97 be 25 d9 d3 3e
       0.09895197 0.43198144 -0.29544225 0.41376606
000060 e8 63 f0 3d e3 9e d7 3e 26 15 ce 3e bc 2a 00 be
       0.117378056 0.42113408 0.4025051 -0.12516302
000070 74 63 62 3c 32 cf a9 bd cb a7 62 be 39 66 dc bd
       0.013817657 -0.082914725 -0.2213432 -0.10761685
000080 e5 84 d7 bd a3 fb e4 3d 7d f3 a0 3e 34 9a 97 be
       -0.105233945 0.111808084 0.31435767 -0.29609835
000090 86 6e 63 bc 26 0a 30 bc 0b ce 3e be 6c 22 d5 3d
       -0.013881331 -0.010744607 -0.18633287 0.10406956
0000a0 9e 1d bc bd 5d 7f 86 bc 96 5c c1 be e0 17 f7 3d
       -0.091853365 -0.016418153 -0.3776595 0.12065101
0000b0 63 41 8c bd 6b b5 e8 3c d1 42 59 bd 50 92 47 be
       -0.06848409 0.02840682 -0.053042237 -0.19489408
0000c0 72 6c 6b 3e 6b 8c ab bd 06 99 9d 3e c7 a5 74 bd
       0.22990587 -0.08376392 0.3078081 -0.05972841
0000d0 d2 99 cb bd b4 47 7f be 2c 5f a7 3d 86 af 9f 3e
       -0.09941448 -0.24929696 0.081724495 0.311886
0000e0 45 e7 78 3e 53 56 69 3e 90 6a 25 3e b4 1a 23 be
       0.24306972 0.22786836 0.16153932 -0.15928155
0000f0 7e 47 d0 bd 20 19 aa be 03 50 21 3d b4 0c 20 bc
       -0.10169886 -0.33222294 0.039382946 -0.009768654
000100 3c e9 d5 be 3d 93 27 3e 53 d6 bf 3e ed 28 cc be
       -0.41779506 0.1636476 0.37468204 -0.39874974
000110 2c 64 b7 be 68 cc cc bd e0 19 59 be 55 6d 21 3d
       -0.35818613 -0.09999925 -0.21201277 0.039410908
000120 ec 35 ee bc 18 97 e9 bb e0 94 9c 3d 3c d9 eb 3c
       -0.029078446 -0.0071286075 0.07645583 0.028790109
000130 d5 d6 e0 be db 1c 6c 3d 16 6a 12 be f2 e7 7d bd
       -0.43913904 0.057644706 -0.14298281 -0.06198878
000140 c6 87 81 3c 77 89 ec 3d f6 b4 c8 3b 6b 90 9a be
       0.015811812 0.11549657 0.006125088 -0.30188307
000150 34 47 03 3e 37 88 f0 bd 35 72 ed bc 80 5d 18 3e
       0.1282013 -0.11744731 -0.028985122 0.14879417
000160 6c 27 a5 3d 9d c6 0a be a1 67 77 3c cd e9 a8 bc
       0.0806416 -0.13552327 0.015100391 -0.020619297
000170 45 83 f8 3e 3f a4 c3 3d 8e 54 4c be 55 65 a1 3b
       0.4853765 0.09552812 -0.1995413 0.00492541
000180 41 0c cf 3d 79 77 97 3e df d0 4e bd 2e c7 97 be
       0.10109759 0.29583338 -0.050492164 -0.2964415
000190 80 88 e7 3e bd 3c de bd a3 85 53 bd 80 65 b6 3e
       0.4522133 -0.10851429 -0.051641118 0.35624313
0001a0 11 50 e8 bc c0 b4 fd be 81 8a d9 bd 05 fc bb 3d
       -0.028358491 -0.49551964 -0.10622121 0.09178928
0001b0 61 7b 1e 3f 77 ff c5 3e 13 99 a5 bc a1 0b 79 3e
       0.6190701 0.38671467 -0.020214593 0.24320842
0001c0 d1 3a 58 3e 8e a8 07 3e 56 db c2 3e ae 9a e8 3d
       0.21116187 0.13247892 0.38057965 0.11357628
0001d0 4c f7 41 bd 97 0f bb be f4 b4 18 3e 96 b8 bd be
       -0.04735498 -0.36535332 0.14912778 -0.3705489
0001e0 e8 3b 4d bd 9c 9e cb bb 22 fa 1e bd c6 49 a3 be
       -0.05010596 -0.006213976 -0.038812764 -0.31892222
0001f0 29 9a c6 3c 08 8f 43 3d d7 0d 35 bd 25 ea 98 3d
       0.024243431 0.047743827 -0.04420265 0.074665345
000200 63 7f 26 be ef 88 fb bd 02 6a b8 bd 62 29 87 3e
       -0.16259532 -0.122819774 -0.090045944 0.2639876
000210 96 76 2f 3e ec 95 29 3e e9 59 d8 3e b3 03 98 3d
       0.1713508 0.16561097 0.42256096 0.074225806
000220 25 42 87 be e6 26 62 be 19 90 2b 3e b4 40 65 3e
       -0.26417652 -0.22085151 0.16754188 0.22387964
000230 0a 90 5d be 36 29 86 3d 67 74 e6 bd 47 3b 3b 3d
       -0.21636978 0.06550829 -0.11252671 0.04571083
000240 41 05 e6 3e af b5 38 3e c6 67 ba 3d 1f 71 db 3e
       0.44925883 0.18038057 0.091018245 0.42859742
000250 6b f5 32 3e 5c f7 0e 3e 66 c8 ac 39 30 6a 9c 3e
       0.17476432 0.13961548 0.00032955705 0.30549765
000260 13 2c 92 3d 49 06 68 bc 17 9f 46 3e f4 f9 71 3c
       0.07137313 -0.014161655 0.19396625 0.014769066
000270 0d 95 23 be ea b3 3e be 96 19 a0 3e d8 74 85 3e
       -0.15974827 -0.1862332 0.3126952 0.26065707
000280 96 66 2a 3d ad 79 16 bd 26 06 93 be 17 9a 9b 3d
       0.04160174 -0.036737133 -0.28715628 0.0759775
000290 e7 39 4b bd 59 35 cf bd 3f a3 84 bd 50 62 dc bd
       -0.049615767 -0.10117597 -0.06476449 -0.10760939
0002a0 39 60 d7 3e b5 b5 39 bd 56 b0 c7 3c f9 e4 35 bd
       0.420656 -0.045339305 0.024376076 -0.04440782
0002b0 79 3c a2 3e 39 d2 a0 bd fc e9 54 be fb b2 e5 be
       0.31686762 -0.07852597 -0.20792383 -0.44863114
0002c0 15 4a d6 bd e7 3c 08 3d d8 05 84 3e e1 a2 a6 3e
       -0.10463349 0.033261206 0.25785708 0.32546142
0002d0 01 8d 23 3e df e9 0f bd b1 ff 57 bd bd 2c b8 bd
       0.15971757 -0.035135146 -0.05273408 -0.08992908
0002e0 90 2a 94 bd d7 51 7c 3d 87 46 b6 3c e3 36 48 3e
       -0.07234681 0.061601486 0.022250427 0.19552188
0002f0 07 56 a6 3a 2d ea f9 bd 10 b4 89 3e ce 08 d6 be
       0.0012690433 -0.122028686 0.2689519 -0.41803592
000300 f3 5d 8f bc e9 e9 6f bd 8b 66 99 be 5b 4e 89 3d
       -0.017500853 -0.058572683 -0.29961047 0.06704398
000310 2a ae c5 bd 26 ca bf 3e 26 7e 46 3d 9a 87 98 bd
       -0.0965236 0.37458915 0.04846015 -0.07447739

block3.linear3.bias f4 [100]
000000 82 43 41 3d bf 96 05 bd 31 1e 3d 3d 75 5b ee 3e
       0.04718352 -0.032614466 0.04617137 0.4655415
000010 15 9d f8 3e 7a 1e e7 be c3 44 7c bd a8 9a 10 3d
       0.48557344 -0.4514044 -0.061589014 0.03530374
000020 79 f8 8d be 79 be 16 3d 7e d3 e9 3b 0b c2 a7 bd
       -0.27728632 0.036802743 0.0071358075 -0.08191308
000030 f1 87 b8 3c 6a 92 06 3e 82 de 18 3e 57 b1 d3 bc
       0.02252576 0.1314179 0.1492863 -0.025841398
000040 d4 1c 4a 3d da fb 4f 3e 06 ee 8c be 23 a6 60 be
       0.0493439 0.20310917 -0.27525347 -0.21938376
000050 a6 d8 d0 3b 51 53 05 be 3c 34 1c 3d d5 4c 55 3e
       0.0063734828 -0.13020064 0.038135752 0.2083009
000060 ba 07 64 3e 95 c8 b4 3d 69 85 92 be 49 de 6b be
       0.22268572 0.088273205 -0.2861741 -0.23034014
000070 e0 8d 07 3e d9 f6 74 3e 5b 49 8f 3e 21 fd e4 3e
       0.13237715 0.2392229 0.27985653 0.44724372
000080 88 66 38 3e b3 6e b9 bd 21 b7 3f be 55 ac b8 3e
       0.18007863 -0.09054317 -0.18722202 0.3606898
000090 d4 70 04 3f 4b 33 d3 bc 4e 80 b5 be 27 99 17 be
       0.5173466 -0.025781294 -0.3544945 -0.14804517
0000a0 0f 31 56 be 16 2e 21 be b3 68 89 be d5 68 4d 3e
       -0.20917152 -0.15740237 -0.26837692 0.20059521
0000b0 55 5a bb 3c 5a fd 2a 3e 8f 88 cb be b1 2d f6 3d
       0.022870222 0.16698208 -0.39752623 0.12020434
0000c0 a9 f2 82 bb 3f dd 61 bd a2 23 ab 3d e0 97 35 be
       -0.0039962125 -0.055142637 0.08356406 -0.17733717
0000d0 f6 08 87 3d 76 fb 61 3d 72 75 c2 bd ec 12 15 be
       0.06593506 0.055171452 -0.09495057 -0.14558
0000e0 7a d8 f0 3d fb 4a 91 bd b1 9e 44 be a5 26 3c 3e
       0.1176004 -0.070943795 -0.19201161 0.18374117
0000f0 91 b4 eb 3d 3a 07 41 3e cf f0 80 be 1e 8b a3 be
       0.1150905 0.18850413 -0.25183722 -0.31942075
000100 57 b8 51 3d 24 71 63 3e 70 98 8e 3e 35 14 df bc
       0.05120119 0.22211128 0.27850676 -0.027231315
000110 af 34 12 bd 2d b8 a2 3e 5b 66 9a 3e 99 50 2b 3f
       -0.035694774 0.3178114 0.30156216 0.6691986
000120 b2 35 7a bd b0 bd b8 3e f4 85 9b bd dd 6b b4 bd
       -0.061086364 0.3608222 -0.07593909 -0.08809636
000130 b9 22 d8 3c 18 05 72 be cc bb 43 be f9 56 fd 3c
       0.026383745 -0.23634756 -0.19114608 0.03092526
000140 6a fe 88 3e cd 27 9f 3e ef 56 25 be 01 bf 0c be
       0.26756603 0.31085053 -0.16146444 -0.13744737
000150 49 3f 48 3e 84 23 80 3e 85 4f 60 3e 5e cc 8a 3e
       0.19555391 0.25027096 0.21905334 0.27109045
000160 92 40 f1 bd 04 20 ea 3c 15 74 b1 3c f9 8f 62 3e
       -0.11779894 0.02857972 0.021661798 0.22125234
000170 6c 17 22 bd d0 3c 83 3c 2b eb 96 be 97 80 4b 3b
       -0.039573118 0.016020209 -0.29476294 0.0031051987
000180 56 5b 3c 3d 8a 8c 00 3f 52 3c 23 be 4c d8 1e be
       0.045985542 0.50214446 -0.15940979 -0.15512198

block.linear0.bias f4 [200]
000000 8f 19 7e bd a5 5b 03 3e 37 f4 81 be 32 27 20 be
       -0.062036093 0.12827928 -0.25381634 -0.15639952
000010 45 90 c4 bd 98 26 8a bd be 5e d9 bd 2a 15 94 bd
       -0.0959783 -0.067456424 -0.10613774 -0.07230599
000020 49 32 76 3d 96 c0 7a be ed 38 91 3e e9 4a af 3d
       0.06010655 -0.24487528 0.28363743 0.0855921
000030 a2 b0 bc bd a5 26 0b 3e 6b 17 22 be 46 e8 b2 3e
       -0.092133775 0.1358896 -0.15829246 0.34942836
000040 f3 84 73 be 76 f8 e5 be 34 f8 8b bd e6 41 ca be
       -0.23781185 -0.44916123 -0.0683445 -0.39503402
000050 38 0e 7c be 1d 30 51 3e 27 cc e7 ba 9f a0 47 be
       -0.24614799 0.2042851 -0.0017684744 -0.19494866
000060 3c e7 99 3e f6 02 a4 bd 62 d9 20 3d 96 aa 97 3d
       0.3005923 -0.08008377 0.039269812 0.074055836
000070 c6 d1 c3 bd 1d b2 dc bc 32 3d 8d bd 6f 07 50 3d
       -0.095614955 -0.0269404 -0.06896438 0.05078834
000080 74 bb bc ba 5e 63 f9 3d 86 b4 bc bd 6d 08 ca 3d
       -0.0014399127 0.12177156 -0.092141196 0.09864888
000090 43 fb 33 be 1c e7 f3 bd 84 0e e5 bd 46 13 1b be
       -0.17576317 -0.11909315 -0.11184409 -0.15144071
0000a0 cc d9 5d 3c 72 6c 26 be 9d 96 14 be b0 81 b5 3e
       0.013540696 -0.16252306 -0.1451058 0.35450506
0000b0 b6 b7 bc bd 98 ef 1f be e1 5c 55 3e db 77 a3 3c
       -0.092147276 -0.15618742 0.20836212 0.019954612
0000c0 bf 92 72 bd 96 89 62 be 52 c5 e7 bd 8e b4 43 be
       -0.05922198 -0.22122797 -0.11316933 -0.19111845
0000d0 41 7b b9 bc d7 ab 04 3e c8 03 60 3d 4e f8 54 3d
       -0.02264178 0.12956177 0.054691106 0.051994614
0000e0 23 ab 4f bd a2 36 75 3e d7 27 ac 3e bc 8a 75 be
       -0.050700318 0.23946622 0.33624145 -0.23978704
0000f0 db 84 32 3e 25 90 7d 3d b6 01 da bd 00 94 95 be
       0.17433493 0.061905045 -0.106448576 -0.29214478
000100 9d ad ea bd 5d bd a9 bc a5 30 9d be 45 3d ca be
       -0.11458895 -0.020720178 -0.30701175 -0.3949987
000110 4a 19 fb bb 7e a1 c4 be d0 cc 76 be 92 af 13 be
       -0.007662927 -0.3840446 -0.24101567 -0.14422444
000120 31 2b 19 3d 21 db 09 3e 98 9e 1f be ef a2 5f 3d
       0.037394706 0.13462497 -0.15587842 0.054598745
000130 8d 6f 5e be 72 73 67 3d 93 c7 00 3e 60 f3 6d be
       -0.21722241 0.05650658 0.12576132 -0.23237371
000140 5d 27 be 3e 80 7f b5 bd a7 9d 03 bb 74 80 82 be
       0.37139407 -0.08862209 -0.0020082982 -0.25488627
000150 ac 08 ca 3e f7 95 90 be 36 e1 7d 3e d0 f2 35 be
       0.3945974 -0.28239414 0.24792942 -0.17768407
000160 22 eb c7 bd a6 4f 99 bc b9 7f af be ac 27 4a 3d
       -0.09761645 -0.018714737 -0.34277132 0.04935424
000170 0d 9a df 3d 56 21 84 bd 99 05 04 bd 5c 94 36 be
       0.10918055 -0.06451671 -0.0322319 -0.17830032
000180 85 79 18 3e b8 96 a2 be ed 05 ef 3d 99 3e 5f bd
       0.14890106 -0.31755614 0.11671052 -0.054503057
000190 e6 8b 55 3e f8 88 af 3e c1 3a 91 bd 7d 49 65 3e
       0.20854148 0.34284186 -0.070912845 0.22391315
0001a0 72 fd 9f 3c 2c 57 8d 3e 3e 27 88 3c 6a 1c ae 3e
       0.019530032 0.2760557 0.016620275 0.34006053
0001b0 da e7 96 be 16 03 aa 3e 5b 07 a0 3d 01 97 f5 3b
       -0.29473764 0.3320548 0.07813903 0.0074948077
0001c0 4c 4c 94 be 81 d6 87 be 94 02 b1 be 61 8f 54 bc
       -0.2896446 -0.2653084 -0.3457228 -0.012973637
0001d0 52 68 c7 3d 83 42 9f be aa ba ce bd 89 9f 92 bd
       0.097366944 -0.31105432 -0.10094197 -0.07159335
0001e0 96 fe c9 be 1a 9f 3c 3e cc f8 a5 3e 3c d0 f2 3e
       -0.39452046 0.18420067 0.3241638 0.47424495
0001f0 1c bf 7d be 1f b4 c2 bd e6 7f c0 be cb 2a ed ba
       -0.24779934 -0.095070116 -0.3759758 -0.0018094418
000200 1e fc fa 3e d6 b4 83 3e 83 80 41 bc f4 b2 9c bd
       0.49020475 0.25723904 -0.011810425 -0.0765132
000210 8f 9e 1e be 35 d5 7e be c4 7b 37 be c5 ad 41 be
       -0.15490173 -0.2488602 -0.17918307 -0.18913944
000220 0d 19 68 3d bc b0 2f 3e d2 5d a0 3d c0 6a 2f be
       0.056664515 0.17157263 0.07830395 -0.17130566
000230 3a e9 9c be 17 74 79 be 82 8b 1d 3d 39 ee 90 3d
       -0.30646688 -0.24360691 0.038463123 0.07076687
000240 58 dc 88 be 5c 48 01 bd 57 ee e1 be a7 8d bb 3e
       -0.2673061 -0.031563148 -0.4412715 0.3663151
000250 57 06 e5 be 1f bd 0f bc 2e 09 ef 3c 7d 96 09 3e
       -0.447314 -0.008773117 0.029179182 0.13436313
000260 57 a0 42 3e a1 aa 31 3e f4 6f 02 be 78 a1 3e 3e
       0.19006477 0.17350246 -0.12738019 0.18616283
000270 04 b8 9c bd 40 e9 2c be 0c 27 67 bd 4d 6c 7e be
       -0.07652286 -0.16885853 -0.056433722 -0.24846001
000280 dc 94 a3 be 97 92 08 3e c4 32 cc 3d 43 f3 c3 3d
       -0.31949508 0.1333717 0.0997062 0.09567883
000290 cb f8 14 be 31 d6 76 3c b3 99 07 bc 1e 1a 7c bd
       -0.14548032 0.015065716 -0.008276391 -0.061548345
0002a0 bb 04 fa bb 3a a6 8c 3a 3c 39 00 3e b7 fd 00 3e
       -0.0076299584 0.0010730692 0.12521833 0.12596785
0002b0 3c 1f 9e bd 25 67 77 3e 10 e1 25 3e d1 34 fc bd
       -0.07720801 0.2416044 0.16199136 -0.123147614
0002c0 4f 08 29 3e b6 e4 07 bd 92 a5 44 be 91 a9 3f bd
       0.16507076 -0.0331771 -0.19203785 -0.04679257
0002d0 f8 e1 29 3e 75 f3 9a 3a 98 1b 6e bc fd 89 fd 3d
       0.16590106 0.0011821823 -0.014532946 0.12379835
0002e0 7a 26 67 3d f5 52 eb 3d fe 1b c3 be 2f 1b 6b 3d
       0.05643318 0.11490432 -0.38107294 0.05739897
0002f0 3a 9b 47 be 41 c1 05 3e 03 0a 62 3e 9b 31 37 be
       -0.19492808 0.13062002 0.22074132 -0.17890017
000300 26 e2 e3 3c 49 3c 9b bd 84 45 fd 3d a4 fe 57 be
       0.027817797 -0.07579858 0.12366775 -0.21093231
000310 3c 85 db bc b9 5d 59 be 55 fa 0b be 8b 18 cd 3c
       -0.02679693 -0.21227159 -0.13669713 0.025036117

block.linear1.bias f4 [200]
000000 a9 14 b3 3e 1f 7a 88 be a7 8a c8 bc 7f bf c3 bc
       0.349767 -0.2665567 -0.024480177 -0.023895023
000010 31 05 b3 3d 28 34 66 bc d9 3b eb 3d 28 dc 14 bc
       0.087412246 -0.014050521 0.114860244 -0.009085692
000020 0e 55 10 bd d2 80 b7 be 36 2e 6c be d0 99 25 be
       -0.035237364 -0.3584047 -0.23064503 -0.16171956
000030 58 2c d2 be e6 d8 53 be 61 50 e4 3d dc 50 c2 bd
       -0.41049457 -0.20688209 0.111481436 -0.09488079
000040 1c 57 4e bc 1b 40 ea 3d fc db e6 3e 97 43 30 3e
       -0.012594011 0.114380084 0.4508971 0.17213283
000050 68 c3 c4 be 61 e5 b1 3e 4a a2 ba 3b 11 d1 67 bd
       -0.38430333 0.34745315 0.005695616 -0.056595866
000060 39 50 3a 3e 83 51 81 3e ac d0 0a 3a 69 07 8a 3e
       0.18194665 0.252575 0.0005295377 0.26958779
000070 d6 06 73 3e 0c b9 af bd 5b f6 59 3e 69 a8 91 3d
       0.23733076 -0.08580217 0.21285383 0.071122
000080 7d eb 07 3d 86 c8 be bd 59 f7 85 be 2c 94 f8 be
       0.033183564 -0.093155906 -0.26165274 -0.48550546
000090 44 13 8e be 3c 95 43 3e c5 b0 ff bd 52 f7 f9 bd
       -0.27749074 0.19099897 -0.12484888 -0.12205376
0000a0 89 57 4e be ad f1 22 be dc e3 85 3e 00 a6 8a 3d
       -0.2015058 -0.15912504 0.26150405 0.06769943
0000b0 bb 6a 9d 3e fe 8d 59 3d d4 0c 13 bd 94 58 11 be
       0.3074549 0.05311393 -0.035900906 -0.14193946
0000c0 85 64 df bd 93 06 1a be b0 df 6e bd 5a 69 a4 3d
       -0.109078445 -0.1504157 -0.058318794 0.08027907
0000d0 f1 04 ac bd 4e 72 8f be 0a 20 04 bf e0 dd 5e be
       -0.0839938 -0.28016895 -0.5161139 -0.21764326
0000e0 25 2f 1b bd 09 fe c7 be 7e 8a 77 3c 13 28 b2 3d
       -0.037886757 -0.39061 0.015108703 0.0869905
0000f0 9b 50 a3 3d 9a dc 35 3d 6e ce e4 3d 1e 93 ce 3e
       0.07974359 0.044399835 0.11172186 0.40346617
000100 55 4f 84 be f0 c2 af bd ce 0b 3f 3e ec 67 39 3e
       -0.25841776 -0.08582103 0.18656847 0.1810605
000110 ad b8 b9 3d c6 e8 4a 3e 12 7e 0f bd 9d 95 7e be
       0.09068427 0.19815359 -0.03503234 -0.2486176
000120 f2 e5 c6 3d e1 99 95 3d a8 2f d1 3d 1e 8d 24 3e
       0.09711827 0.07304741 0.10214168 0.16069457
000130 58 56 05 3d 70 2b c4 3d f0 db a1 3e e8 74 f9 be
       0.032553047 0.095785975 0.31613111 -0.48722005
000140 07 1f 34 3c f1 3f 68 bc 77 ec b2 3e c3 df 85 3e
       0.010993726 -0.014175401 0.34946033 0.2614728
000150 65 f4 c8 bd 60 3b 9f be 08 ac 83 3a 44 03 c5 3e
       -0.098122396 -0.31099987 0.0010045776 0.38479054
000160 65 38 42 3d 10 4a 1c be 78 be bb be a5 71 bb 3e
       0.047417063 -0.15262628 -0.36668754 0.3661014
000170 14 95 a9 bd 98 1f 85 be f8 32 85 be ac 6f b5 be
       -0.082803875 -0.26000667 -0.2601545 -0.3543676
000180 f3 fb 87 be 58 8c a4 3d 39 f8 f6 be 56 09 c7 bd
       -0.2655941 0.08034581 -0.48236254 -0.097185776
000190 4f c4 c5 3e 97 4a 5a be 06 d2 b7 bd 20 10 d2 3e
       0.38626334 -0.21317516 -0.08975606 0.41027927
0001a0 75 e1 24 bf 23 64 2b 3d 80 72 a8 bd 79 aa 3e 3d
       -0.6440652 0.041843545 -0.08224964 0.046549294
0001b0 48 62 eb 3d f6 62 c0 bd 94 94 c2 3d ac 4d 98 be
       0.11493355 -0.09393875 0.09500995 -0.2974676
0001c0 e0 a3 21 be f1 dc f4 3d 47 2f 71 bc 27 fa 9a be
       -0.1578517 0.11956204 -0.014720744 -0.30268976
0001d0 47 d5 2f 3e 70 3f df 3d 3e 01 b9 3d e7 17 b8 3e
       0.17171203 0.109007716 0.0903344 0.35955736
0001e0 34 f1 90 3d 0a 79 18 be 5d 16 b7 bc 45 35 ed 3c
       0.07077256 -0.14889923 -0.02234953 0.028956065
0001f0 d1 22 6f bd 16 68 93 3b bb 08 23 be 4b ac d0 bd
       -0.058382813 0.004498492 -0.15921299 -0.10189112
000200 a0 c7 d0 3e 78 39 33 3c a6 4a 31 be 29 91 98 3d
       0.40777302 0.010938995 -0.17313632 0.07449562
000210 b2 21 48 3d 9c 34 52 be fb 4f 48 bc d4 85 9d be
       0.04886026 -0.20527881 -0.0122261 -0.30766165
000220 e7 30 ee 3d 70 f6 45 be 96 40 69 3d fb b8 12 bd
       0.11630421 -0.1933229 0.05694636 -0.035820942
000230 8d 56 4c bd cf c0 85 3d 5e 98 a0 bc cc 6d 75 3d
       -0.04988723 0.06530916 -0.019603904 0.059919164
000240 f6 9d 8f be 12 c5 93 3e 85 63 bf be cb 86 95 bd
       -0.28050202 0.2886129 -0.37380615 -0.073011
000250 16 b0 92 3d ed 48 64 3d 04 dd 9f 3d 3d 3e cb bc
       0.07162492 0.05573361 0.07805827 -0.024809951
000260 78 54 9d 3d 37 4f 93 be 5e da 88 be a9 e8 61 3e
       0.07682127 -0.28771374 -0.267291 0.22061409
000270 03 24 8e be a1 09 78 3e 90 46 12 bc 2c 2f 3d 3c
       -0.2776185 0.24222423 -0.008927956 0.011546891
000280 91 58 06 3e eb aa 8c 3e b6 a0 66 be 4e 72 1d 3c
       0.13119723 0.2747415 -0.22522244 0.009609772
000290 53 65 ca bd 8f d1 a4 3e 4e 8a af be c5 71 f1 bd
       -0.09882607 0.3219113 -0.34285206 -0.11789278
0002a0 3c 7a 59 3e ab bc cb bd 96 66 0e be 12 69 ab be
       0.21238035 -0.09948095 -0.13906321 -0.334786
0002b0 71 7f 9c 3c 56 7b fd 3d 42 5b 02 3e 21 40 9a 3d
       0.019103738 0.1237704 0.12730125 0.07531763
0002c0 c2 48 19 be f6 45 09 3e d5 34 55 3e cb c0 55 3e
       -0.14969161 0.13405594 0.20820935 0.20874326
0002d0 8b fb da 3c 89 73 75 3e 03 f2 e5 3c ee c4 fb 3e
       0.026731273 0.23969854 0.028069502 0.49173683
0002e0 d8 d0 71 3d d1 31 a1 bd 31 20 80 b8 b1 11 a8 be
       0.05903706 -0.0787083 -6.109512e-05 -0.32825997
0002f0 c4 a1 fa 3c 24 56 05 3d 7a 7d e8 3b c9 ce 96 3e
       0.030594714 0.032552853 0.007095036 0.2945464
000300 39 2b 76 bd fa 08 9c bd dd 38 d9 be 0c bb d4 bd
       -0.060099814 -0.076189 -0.42426196 -0.10387239
000310 3e 14 6c be 87 c5 86 3e ed dc f1 3d 96 20 81 3e
       -0.23054597 0.26322576 0.118097164 0.25220174

block.linear2.bias f4 [200]
000000 98 79 49 bd 3f f7 d1 bd e3 a4 b4 3d 41 be f5 bc
       -0.049188226 -0.102522366 0.08820512 -0.029997947
000010 28 1c a2 3e 3c 91 f3 be c6 e6 11 be da 53 8e 3d
       0.31662107 -0.47571743 -0.1424819 0.06949587
000020 22 46 98 3d 25 5c 19 3e ec a0 82 bd 3e 2a 10 be
       0.07435252 0.14976557 -0.0637835 -0.14078614
000030 44 01 a9 bd ea 8a 37 3b 05 ce d0 bc 88 bf 54 be
       -0.082521945 0.0028006383 -0.025488863 -0.20776188
000040 96 2f 04 3f 13 1e c6 be 31 db 73 3e 82 ba 6c bc
       0.5163511 -0.3869482 0.23814084 -0.014448764
000050 55 a7 ca 3d ac 2c dd 3e 35 44 97 be 25 d9 d3 3e
       0.09895197 0.43198144 -0.29544225 0.41376606
000060 e8 63 f0 3d e3 9e d7 3e 26 15 ce 3e bc 2a 00 be
       0.117378056 0.42113408 0.4025051 -0.12516302
000070 74 63 62 3c 32 cf a9 bd cb a7 62 be 39 66 dc bd
       0.013817657 -0.082914725 -0.2213432 -0.10761685
000080 e5 84 d7 bd a3 fb e4 3d 7d f3 a0 3e 34 9a 97 be
       -0.105233945 0.111808084 0.31435767 -0.29609835
000090 86 6e 63 bc 26 0a 30 bc 0b ce 3e be 6c 22 d5 3d
       -0.013881331 -0.010744607 -0.18633287 0.10406956
0000a0 9e 1d bc bd 5d 7f 86 bc 96 5c c1 be e0 17 f7 3d
       -0.091853365 -0.016418153 -0.3776595 0.12065101
0000b0 63 41 8c bd 6b b5 e8 3c d1 42 59 bd 50 92 47 be
       -0.06848409 0.02840682 -0.053042237 -0.19489408
0000c0 72 6c 6b 3e 6b 8c ab bd 06 99 9d 3e c7 a5 74 bd
       0.22990587 -0.08376392 0.3078081 -0.05972841
0000d0 d2 99 cb bd b4 47 7f be 2c 5f a7 3d 86 af 9f 3e
       -0.09941448 -0.24929696 0.081724495 0.311886
0000e0 45 e7 78 3e 53 56 69 3e 90 6a 25 3e b4 1a 23 be
       0.24306972 0.22786836 0.16153932 -0.15928155
0000f0 7e 47 d0 bd 20 19 aa be 03 50 21 3d b4 0c 20 bc
       -0.10169886 -0.33222294 0.039382946 -0.009768654
000100 3c e9 d5 be 3d 93 27 3e 53 d6 bf 3e ed 28 cc be
       -0.41779506 0.1636476 0.37468204 -0.39874974
000110 2c 64 b7 be 68 cc cc bd e0 19 59 be 55 6d 21 3d
       -0.35818613 -0.09999925 -0.21201277 0.039410908
000120 ec 35 ee bc 18 97 e9 bb e0 94 9c 3d 3c d9 eb 3c
       -0.029078446 -0.0071286075 0.07645583 0.028790109
000130 d5 d6 e0 be db 1c 6c 3d 16 6a 12 be f2 e7 7d bd
       -0.43913904 0.057644706 -0.14298281 -0.06198878
000140 c6 87 81 3c 77 89 ec 3d f6 b4 c8 3b 6b 90 9a be
       0.015811812 0.11549657 0.006125088 -0.30188307
000150 34 47 03 3e 37 88 f0 bd 35 72 ed bc 80 5d 18 3e
       0.1282013 -0.11744731 -0.028985122 0.14879417
000160 6c 27 a5 3d 9d c6 0a be a1 67 77 3c cd e9 a8 bc
       0.0806416 -0.13552327 0.015100391 -0.020619297
000170 45 83 f8 3e 3f a4 c3 3d 8e 54 4c be 55 65 a1 3b
       0.4853765 0.09552812 -0.1995413 0.00492541
000180 41 0c cf 3d 79 77 97 3e df d0 4e bd 2e c7 97 be
       0.10109759 0.29583338 -0.050492164 -0.2964415
000190 80 88 e7 3e bd 3c de bd a3 85 53 bd 80 65 b6 3e
       0.4522133 -0.10851429 -0.051641118 0.35624313
0001a0 11 50 e8 bc c0 b4 fd be 81 8a d9 bd 05 fc bb 3d
       -0.028358491 -0.49551964 -0.10622121 0.09178928
0001b0 61 7b 1e 3f 77 ff c5 3e 13 99 a5 bc a1 0b 79 3e
       0.6190701 0.38671467 -0.020214593 0.24320842
0001c0 d1 3a 58 3e 8e a8 07 3e 56 db c2 3e ae 9a e8 3d
       0.21116187 0.13247892 0.38057965 0.11357628
0001d0 4c f7 41 bd 97 0f bb be f4 b4 18 3e 96 b8 bd be
       -0.04735498 -0.36535332 0.14912778 -0.3705489
0001e0 e8 3b 4d bd 9c 9e cb bb 22 fa 1e bd c6 49 a3 be
       -0.05010596 -0.006213976 -0.038812764 -0.31892222
0001f0 29 9a c6 3c 08 8f 43 3d d7 0d 35 bd 25 ea 98 3d
       0.024243431 0.047743827 -0.04420265 0.074665345
000200 63 7f 26 be ef 88 fb bd 02 6a b8 bd 62 29 87 3e
       -0.16259532 -0.122819774 -0.090045944 0.2639876
000210 96 76 2f 3e ec 95 29 3e e9 59 d8 3e b3 03 98 3d
       0.1713508 0.16561097 0.42256096 0.074225806
000220 25 42 87 be e6 26 62 be 19 90 2b 3e b4 40 65 3e
       -0.26417652 -0.22085151 0.16754188 0.22387964
000230 0a 90 5d be 36 29 86 3d 67 74 e6 bd 47 3b 3b 3d
       -0.21636978 0.06550829 -0.11252671 0.04571083
000240 41 05 e6 3e af b5 38 3e c6 67 ba 3d 1f 71 db 3e
       0.44925883 0.18038057 0.091018245 0.42859742
000250 6b f5 32 3e 5c f7 0e 3e 66 c8 ac 39 30 6a 9c 3e
       0.17476432 0.13961548 0.00032955705 0.30549765
000260 13 2c 92 3d 49 06 68 bc 17 9f 46 3e f4 f9 71 3c
       0.07137313 -0.014161655 0.19396625 0.014769066
000270 0d 95 23 be ea b3 3e be 96 19 a0 3e d8 74 85 3e
       -0.15974827 -0.1862332 0.3126952 0.26065707
000280 96 66 2a 3d ad 79 16 bd 26 06 93 be 17 9a 9b 3d
       0.04160174 -0.036737133 -0.28715628 0.0759775
000290 e7 39 4b bd 59 35 cf bd 3f a3 84 bd 50 62 dc bd
       -0.049615767 -0.10117597 -0.06476449 -0.10760939
0002a0 39 60 d7 3e b5 b5 39 bd 56 b0 c7 3c f9 e4 35 bd
       0.420656 -0.045339305 0.024376076 -0.04440782
0002b0 79 3c a2 3e 39 d2 a0 bd fc e9 54 be fb b2 e5 be
       0.31686762 -0.07852597 -0.20792383 -0.44863114
0002c0 15 4a d6 bd e7 3c 08 3d d8 05 84 3e e1 a2 a6 3e
       -0.10463349 0.033261206 0.25785708 0.32546142
0002d0 01 8d 23 3e df e9 0f bd b1 ff 57 bd bd 2c b8 bd
       0.15971757 -0.035135146 -0.05273408 -0.08992908
0002e0 90 2a 94 bd d7 51 7c 3d 87 46 b6 3c e3 36 48 3e
       -0.07234681 0.061601486 0.022250427 0.19552188
0002f0 07 56 a6 3a 2d ea f9 bd 10 b4 89 3e ce 08 d6 be
       0.0012690433 -0.122028686 0.2689519 -0.41803592
000300 f3 5d 8f bc e9 e9 6f bd 8b 66 99 be 5b 4e 89 3d
       -0.017500853 -0.058572683 -0.29961047 0.06704398
000310 2a ae c5 bd 26 ca bf 3e 26 7e 46 3d 9a 87 98 bd
       -0.0965236 0.37458915 0.04846015 -0.07447739

block.linear3.bias f4 [100]
000000 82 43 41 3d bf 96 05 bd 31 1e 3d 3d 75 5b ee 3e
       0.04718352 -0.032614466 0.04617137 0.4655415
000010 15 9d f8 3e 7a 1e e7 be c3 44 7c bd a8 9a 10 3d
       0.48557344 -0.4514044 -0.061589014 0.03530374
000020 79 f8 8d be 79 be 16 3d 7e d3 e9 3b 0b c2 a7 bd
       -0.27728632 0.036802743 0.0071358075 -0.08191308
000030 f1 87 b8 3c 6a 92 06 3e 82 de 18 3e 57 b1 d3 bc
       0.02252576 0.1314179 0.1492863 -0.025841398
000040 d4 1c 4a 3d da fb 4f 3e 06 ee 8c be 23 a6 60 be
       0.0493439 0.20310917 -0.27525347 -0.21938376
000050 a6 d8 d0 3b 51 53 05 be 3c 34 1c 3d d5 4c 55 3e
       0.0063734828 -0.13020064 0.038135752 0.2083009
000060 ba 07 64 3e 95 c8 b4 3d 69 85 92 be 49 de 6b be
       0.22268572 0.088273205 -0.2861741 -0.23034014
000070 e0 8d 07 3e d9 f6 74 3e 5b 49 8f 3e 21 fd e4 3e
       0.13237715 0.2392229 0.27985653 0.44724372
000080 88 66 38 3e b3 6e b9 bd 21 b7 3f be 55 ac b8 3e
       0.18007863 -0.09054317 -0.18722202 0.3606898
000090 d4 70 04 3f 4b 33 d3 bc 4e 80 b5 be 27 99 17 be
       0.5173466 -0.025781294 -0.3544945 -0.14804517
0000a0 0f 31 56 be 16 2e 21 be b3 68 89 be d5 68 4d 3e
       -0.20917152 -0.15740237 -0.26837692 0.20059521
0000b0 55 5a bb 3c 5a fd 2a 3e 8f 88 cb be b1 2d f6 3d
       0.022870222 0.16698208 -0.39752623 0.12020434
0000c0 a9 f2 82 bb 3f dd 61 bd a2 23 ab 3d e0 97 35 be
       -0.0039962125 -0.055142637 0.08356406 -0.17733717
0000d0 f6 08 87 3d 76 fb 61 3d 72 75 c2 bd ec 12 15 be
       0.06593506 0.055171452 -0.09495057 -0.14558
0000e0 7a d8 f0 3d fb 4a 91 bd b1 9e 44 be a5 26 3c 3e
       0.1176004 -0.070943795 -0.19201161 0.18374117
0000f0 91 b4 eb 3d 3a 07 41 3e cf f0 80 be 1e 8b a3 be
       0.1150905 0.18850413 -0.25183722 -0.31942075
000100 57 b8 51 3d 24 71 63 3e 70 98 8e 3e 35 14 df bc
       0.05120119 0.22211128 0.27850676 -0.027231315
000110 af 34 12 bd 2d b8 a2 3e 5b 66 9a 3e 99 50 2b 3f
       -0.035694774 0.3178114 0.30156216 0.6691986
000120 b2 35 7a bd b0 bd b8 3e f4 85 9b bd dd 6b b4 bd
       -0.061086364 0.3608222 -0.07593909 -0.08809636
000130 b9 22 d8 3c 18 05 72 be cc bb 43 be f9 56 fd 3c
       0.026383745 -0.23634756 -0.19114608 0.03092526
000140 6a fe 88 3e cd 27 9f 3e ef 56 25 be 01 bf 0c be
       0.26756603 0.31085053 -0.16146444 -0.13744737
000150 49 3f 48 3e 84 23 80 3e 85 4f 60 3e 5e cc 8a 3e
       0.19555391 0.25027096 0.21905334 0.27109045
000160 92 40 f1 bd 04 20 ea 3c 15 74 b1 3c f9 8f 62 3e
       -0.11779894 0.02857972 0.021661798 0.22125234
000170 6c 17 22 bd d0 3c 83 3c 2b eb 96 be 97 80 4b 3b
       -0.039573118 0.016020209 -0.29476294 0.0031051987
000180 56 5b 3c 3d 8a 8c 00 3f 52 3c 23 be 4c d8 1e be
       0.045985542 0.50214446 -0.15940979 -0.15512198
